data.pth (torch, 5911 bytes, 6 tensors)

l1.weight f4 [8, 73]
0.35653543 0.1093649 0.61577064 -0.4362474 0.2873217 0.41079453 0.4734321 0.40440235
0.4467815 0.41555747 -0.46348986 -0.42203912 -0.21974601 -0.5118463 0.25818282 0.38894293
0.36824256 0.5655919 0.5356238 -0.25850788 0.37932283 -0.46352774 0.51313466 0.49596703
0.12843172 0.45581928 0.5765153 0.00063895097 -0.06649194 0.17243892 0.7581448 0.62628156
0.4909915 0.39217722 -0.27034697 -0.21664387 0.07508443 0.40530992 0.39913222 0.24648592
0.24466242 -0.015182821 0.24771254 0.51722944 -0.08758638 0.54937285 0.020644696 0.3737425
-0.07775467 0.48045972 0.30868688 0.3968924 -0.3627396 -0.37741172 0.3747665 0.525579
0.6576662 0.22100207 0.41614315 0.44984648 0.24610609 0.20825808 0.37592655 -0.31380782
0.46093917 0.101876624 -0.13343629 0.2677143 0.46235716 0.028457997 0.1257328 0.54280716
0.16955514 -0.12861438 0.5687313 0.51917565 0.5643373 -0.018186066 -0.116913475 -0.2276914
0.32061285 0.082576394 -0.16158976 -0.51688707 -0.26146775 -0.59805757 0.5088151 0.051196218
0.21694472 -0.11453086 -0.19393867 -0.017426658 -0.16916193 0.22125396 -0.51724815 -0.122860186
0.16125159 0.551552 0.10125501 0.18376327 0.38286307 0.08300437 -0.076132976 -0.3461872
0.36013162 -0.15460534 -0.10546816 -0.31467676 -0.016425654 0.196611 0.082288265 -0.033201426
0.017923051 -0.042606823 0.2795481 0.31486243 -0.18899043 0.29769075 -0.12783669 -0.16365084
0.042320926 -0.29590553 0.033779427 -0.1823969 -0.0465795 -0.49641284 -0.08163787 -0.15475275
-0.11157387 -0.27725884 -0.09593905 0.01818153 1.0395445 0.48765817 -0.093901135 0.3255111
-0.009057064 0.055651847 0.3730355 0.09870111 -0.15671474 0.04000268 0.3118219 -0.12502506
-0.30818442 0.29413453 -0.27038658 0.36678907 0.06865867 -0.4516458 -0.29773262 0.31306764
0.70765233 0.4175776 0.369315 0.5057453 -0.46273696 -0.29110545 -0.2002586 -0.30390033
0.426267 0.41473445 0.43776092 0.68721855 0.5931291 -0.3372489 0.5632209 -0.46632153
-0.22248934 0.61767036 0.36825863 0.76547354 0.5550585 -0.020681307 0.11544452 -0.27407274
0.12708409 0.028815046 0.5455042 0.66951144 -0.37822095 -0.16957517 0.20702751 -0.21444683
-0.06514415 -0.075491436 0.33359164 -0.06887098 0.08055845 0.7001366 -0.04063339 0.69297683
-0.2764915 -0.24059935 -0.09916652 -0.20851955 0.47891825 -0.22309732 -0.49762434 -0.26716426
0.3224135 -0.2924124 0.7033754 0.24340984 -0.04980417 0.51207006 0.24766862 -0.19604197
0.4413719 -0.081696615 -0.18488893 -0.12073202 -0.08683477 -0.081137575 0.45273986 -0.018005855
-0.35966673 0.88476425 0.39937982 -0.21167064 0.1030378 0.28866518 -0.31520435 0.34882292
0.06714537 -0.2506142 0.32420108 0.49602014 0.08652233 -0.6080381 -0.49399003 -0.3893613
-0.41466442 -0.011741802 0.41713342 -0.08790038 -0.41945472 -0.33088976 -0.5794634 0.39767483
-0.6081858 0.20367685 0.6222041 0.1630401 0.6597233 0.71418345 -0.16531883 -0.0011316506
-0.17058362 -0.25770614 0.3158136 -0.2435613 -0.23667671 -0.30708665 0.31188583 0.07017244
00000000: d08b b63e b4fa df3d 25a3 1d3f d25b dfbe
00000010: d41b 933e a953 d23e b165 f23e d30d cf3e
00000020: 8bc0 e43e f3c3 d43e 8b4e edbe 8315 d8be
00000030: 1905 61be 5c08 03bf 8a30 843e 8723 c73e
00000040: 4a8a bc3e a1ca 103f a41e 093f 255b 84be
00000050: 9a36 c23e 8253 edbe cb5c 033f 64ef fd3e
00000060: 9b83 033e 2561 e93e 8296 133f 467f 273a
00000070: ed2c 88bd d493 303e c715 423f fd53 203f
00000080: 3d63 fb3e 74cb c83e eb6a 8abe e4d7 5dbe
00000090: dec5 993d c884 cf3e 0f5b cc3e ce66 7c3e
000000a0: c988 7a3e 5ec1 78bc 5ba8 7d3e 2669 043f
000000b0: 7d60 b3bd b3a3 0c3f 111f a93c 2d5b bf3e
000000c0: d73d 9fbd d1fe f53e 350c 9e3e 7b35 cb3e
000000d0: 01b9 b9be 1c3c c1be 65e1 bf3e 588c 063f
000000e0: d05c 283f 5e4e 623e b710 d53e 4752 e63e
000000f0: 3c03 7c3e 9b41 553e 7279 c03e 6bab a0be
00000100: 3800 ec3e b1a4 d03d 86a3 08be d911 893e
00000110: 14ba ec3e bf20 e93c 19c0 003e 69f5 0a3f
00000120: dd9f 2d3e 7db3 03be 6098 113f b2e8 043f
00000130: 6978 103f f2fa 94bc 5570 efbd ef27 69be
00000140: 5e27 a43e d01d a93d c977 25be b652 04bf
00000150: 1adf 85be 4d1a 19bf b541 023f 20b3 513d
00000160: c226 5e3e 288f eabd dc97 46be 5ac2 8ebc
00000170: c938 2dbe 6690 623e 606a 04bf 1f9e fbbd
00000180: 231f 253e 8332 0d3f c95e cf3d 702c 3c3e
00000190: a106 c43e 32fe a93d 9beb 9bbd 733f b1be
000001a0: 2c63 b83e dd50 1ebe b1ff d7bd 501d a1be
000001b0: 188f 86bc 6554 493e c086 a83d 38fe 07bd
000001c0: 5dd3 923c 7e84 2ebd ee20 8f3e a635 a13e
000001d0: b586 41be ec6a 983e 9fe7 02be 1694 27be
000001e0: b558 2d3d ee80 97be 4c5c 0a3d 41c6 3abe
000001f0: 25ca 3ebd d329 febe c131 a7bd 8177 1ebe
00000200: d780 e4bd dff4 8dbe b17b c4bd 6ff1 943c
00000210: cb0f 853f 55ae f93e 3d4f c0bd 64a9 a63e
00000220: 1464 14bc 31f3 633d 82fe be3e cf23 ca3d
00000230: d479 20be dad9 233d 1fa7 9f3e 9206 00be
00000240: 59ca 9dbe cd98 963e 1c70 8abe c7cb bb3e
00000250: eb9c 8c3d 1e3e e7be 6970 98be 674a a03e
00000260: b428 353f bbcc d53e db16 bd3e 8678 013f
00000270: dceb ecbe c60b 95be 9710 4dbe d398 9bbe
00000280: ab3f da3e 1358 d43e 3322 e03e 8eed 2f3f
00000290: 4fd7 173f e3ab acbe 3f2f 103f b2c1 eebe
000002a0: 3fd4 63be a51f 1e3f 658c bc3e 13f6 433f
000002b0: 5018 0e3f d86b a9bc 2d6e ec3d 4353 8cbe
000002c0: 5522 023e 880d ec3c 2aa6 0b3f 1a65 2b3f
000002d0: 2da6 c1be 1da5 2dbe 05ff 533e f397 5bbe
000002e0: 4c6a 85bd 419b 9abd 86cc aa3e 3a0c 8dbd
000002f0: d4fb a43d 273c 333f 336f 26bd ee66 313f
00000300: 4b90 8dbe ad5f 76be d117 cbbd 2686 55be
00000310: c634 f53e a073 64be 9ec8 febe c1c9 88be
00000320: 6213 a53e 14b7 95be 6910 343f 6e40 793e
00000330: 75ff 4bbd 0617 033f d89c 7d3e 3abf 48be
00000340: 7ffb e13e 8e50 a7bd 8653 3dbe 5942 f7bd
00000350: 6ed6 b1bd 752b a6bd 85cd e73e 0481 93bc
00000360: 3d26 b8be e97f 623f 837b cc3e 30c0 58be
00000370: 7b05 d33d eccb 933e 7762 a1be eb98 b23e
00000380: 8383 893d 8150 80be affd a53e 5af6 fd3e
00000390: 9f32 b13d 63a8 1bbf 43ec fcbe 5d5a c7be
000003a0: e54e d4be b060 40bc 8392 d53e 1d05 b4bd
000003b0: c5c2 d6be 626a a9be b757 14bf 099c cb3e
000003c0: 11b2 1bbf aa90 503e c548 1f3f fcf3 263e
000003d0: a0e3 283f bad4 363f 5749 29be e553 94ba
000003e0: 79ad 2ebe 0ff2 83be 52b2 a13e 2268 79be
000003f0: 615b 72be 763a 9dbe 80af 9f3e 91b6 8f3d

l1.bias f4 [8]
0.46349093 0.51709855 0.73190147 0.6079961 1.1053209 0.53636575 0.5648593 0.525849
00000000: af4e ed3e 9260 043f e55d 3b3f a2a5 1b3f
00000010: 287b 8d3f 444f 093f 9e9a 103f 0a9e 063f

l2.weight f4 [8, 8]
0.75003934 1.183598 1.4218363 1.0239033 0.019839212 0.30011177 1.102818 -0.18880485
0.023717552 0.16894284 -0.31907344 0.06810367 -0.13949805 0.09225708 0.06588045 -0.18654162
0.05186389 1.472857 0.09288506 1.1440061 0.089361 0.2994495 0.97354645 -0.2746379
1.1946391 -0.0016834649 0.48622265 -0.142254 -0.7821198 1.3997254 -0.33248925 1.6529088
0.12198568 0.8594059 1.185486 0.2038541 1.7776233 -0.57419276 0.71344876 -0.59584606
-0.815589 0.96028477 -0.9354139 -0.5625773 -0.0921981 0.8872263 -0.56856894 0.7734578
-0.55813116 -0.06563352 -0.5408997 1.0348362 0.34064582 1.080739 -0.0052525257 0.53146917
-0.033322994 -0.8704116 1.0087942 0.99418503 -0.4291314 1.5342629 0.07500924 0.09336837
00000000: 9402 403f 2480 973f bbfe b53f 430f 833f
00000010: d885 a23c 40a8 993e 2429 8d3f 0f56 41be
00000020: 504b c23c 5aff 2c3e 985d a3be f079 8b3d
00000030: 94d8 0ebe 48f1 bc3d 54ec 863d c404 3fbe
00000040: 3b6f 543d 9486 bc3f 863a be3d cb6e 923f
00000050: e602 b73d 7251 993e 573a 793f 579d 8cbe
00000060: efe9 983f b5a7 dcba 2df2 f83e 08ab 11be
00000070: 0139 48bf 342a b33f 083c aabe 8492 d33f
00000080: a1d3 f93d 0602 5c3f 01be 973f 21bf 503e
00000090: 2989 e33f 4cfe 12bf 94a4 363f 5e89 18bf
000000a0: 71ca 50bf 39d5 753f 4977 6fbf 1105 10bf
000000b0: 5cd2 bcbd 4321 633f bc8d 11bf 5501 463f
000000c0: afe1 0ebf de6a 86bd 6778 0abf 8375 843f
000000d0: 2169 ae3e a855 8a3f 611d acbb 5d0e 083f
000000e0: b17d 08bd 4bd3 5ebf 2b20 813f e982 7e3f
000000f0: 1cb7 dbbe ba62 c43f 729e 993d ea37 bf3d

l2.bias f4 [8]
-0.404943 -0.27760476 -0.1123491 0.63700676 0.9060897 0.18892747 -0.267045 -0.018138904
00000000: b054 cfbe 3622 8ebe 4917 e6bd e012 233f
00000010: 7ff5 673f 3476 413e 1fba 88be 0a98 94bc

l3.weight f4 [8, 8]
-1.1148349 -0.2862629 -1.1247225 0.055470947 -0.708453 0.66705626 0.35878015 0.5357493
0.21533275 0.2965974 0.17349952 -0.015748637 -1.6934441 -0.61203307 0.6767105 0.52194136
-1.1267444 -0.008376688 -0.17471893 -0.81869435 1.3496742 -0.5930189 -0.46883684 -0.8637174
0.4212717 -0.3459772 0.46578988 -0.27183127 -0.010947121 -1.1065747 -0.17444874 0.38234973
0.4207495 -0.14881045 -1.3412049 0.3172271 -0.65321046 -1.1561084 -0.7157237 0.4053993
-0.033894703 -0.25716954 -0.9267298 0.93557006 -1.2984469 -0.5976273 -0.88319063 -1.5764768
0.73251504 0.0004389882 0.7091133 -1.1944103 0.37775123 -0.79269594 -1.3375477 -1.1880808
-0.42923206 0.185864 0.17052883 0.22594865 -0.50884 0.49075937 0.49861833 -1.4562583
00000000: e9b2 8ebf 0d91 92be e8f6 8fbf 8135 633d
00000010: 2d5d 35bf 33c4 2a3f 08b2 b73e de26 093f
00000020: 3080 5c3e 9ddb 973e dca9 313e 4903 81bc
00000030: c7c2 d8bf 33ae 1cbf e63c 2d3f f39d 053f
00000040: 2939 90bf 603e 09bc 85e9 32be f495 51bf
00000050: 20c2 ac3f 16d0 17bf 620b f0be 951c 5dbf
00000060: edb0 d73e ec23 b1be 037c ee3e 782d 8bbe
00000070: 8e5b 33bc 3da4 8dbf b1a2 32be 58c3 c33e
00000080: 7a6c d73e c461 18be 9aac abbf 976b a23e
00000090: cd38 27bf 5cfb 93bf ab39 37bf 7f90 cf3e
000000a0: 2cd5 0abd baab 83be 2a3e 6dbf 8581 6f3f
000000b0: 8233 a6bf 1afe 18bf c818 62bf fec9 c9bf
000000c0: 1b86 3b3f 0028 e639 7388 353f 70e2 98bf
000000d0: 9c68 c13e 1fee 4abf c334 abbf 0813 98bf
000000e0: 4ec4 dbbe 2253 3e3e 1c9f 2e3e 155f 673e
000000f0: 5743 02bf d044 fb3e e74a ff3e ac66 babf

l3.bias f4 [8]
0.06555745 -0.35177287 0.54832655 -0.3001435 -0.31271404 0.1933872 -0.50701517 -0.07495195
00000000: fc42 863d 931b b4be 215f 0c3f 69ac 99be
00000010: 0e1c a0be 4b07 463e bfcb 01bf 6880 99bd
